…
Downloading data from https://storage.googleapis.com/tensorflow/keras-applications/mobilenet/mobilenet_1_0_224_tf_no_top.h5
17225924/17225924 ━━━━━━━━━━━━━━━━━━━━ 0s 0us/step
(None, 14, 14, 1536)
(None, 28, 28, 1792)
(None, 56, 56, 1920)
(None, 112, 112, 1984)
(None, 224, 224, 1984)
(None, 224, 224)
Printing model summary

model.summary()
Model: "functional"
┏━━━━━━━━━━━━━━━━━━━━━━━━━━━┳━━━━━━━━━━━━━━━━━━━━━━━━┳━━━━━━━━━━━━━━━━┳━━━━━━━━━━━━━━━━━━━━━━━━┓
┃ Layer (type)              ┃ Output Shape           ┃        Param # ┃ Connected to           ┃
┡━━━━━━━━━━━━━━━━━━━━━━━━━━━╇━━━━━━━━━━━━━━━━━━━━━━━━╇━━━━━━━━━━━━━━━━╇━━━━━━━━━━━━━━━━━━━━━━━━┩
│ input_layer (InputLayer)  │ (None, 224, 224, 3)    │              0 │ -                      │
├───────────────────────────┼────────────────────────┼────────────────┼────────────────────────┤
│ conv1 (Conv2D)            │ (None, 112, 112, 32)   │            864 │ input_layer[0][0]      │
├───────────────────────────┼────────────────────────┼────────────────┼────────────────────────┤
│ conv1_bn                  │ (None, 112, 112, 32)   │            128 │ conv1[0][0]            │
│ (BatchNormalization)      │                        │                │                        │
├───────────────────────────┼────────────────────────┼────────────────┼────────────────────────┤
│ conv1_relu (ReLU)         │ (None, 112, 112, 32)   │              0 │ conv1_bn[0][0]         │
├───────────────────────────┼────────────────────────┼────────────────┼────────────────────────┤
│ conv_dw_1                 │ (None, 112, 112, 32)   │            288 │ conv1_relu[0][0]       │
│ (DepthwiseConv2D)         │                        │                │                        │
├───────────────────────────┼────────────────────────┼────────────────┼────────────────────────┤
│ conv_dw_1_bn              │ (None, 112, 112, 32)   │            128 │ conv_dw_1[0][0]        │
│ (BatchNormalization)      │                        │                │                        │
├───────────────────────────┼────────────────────────┼────────────────┼────────────────────────┤
│ conv_dw_1_relu (ReLU)     │ (None, 112, 112, 32)   │              0 │ conv_dw_1_bn[0][0]     │
├───────────────────────────┼────────────────────────┼────────────────┼────────────────────────┤
│ conv_pw_1 (Conv2D)        │ (None, 112, 112, 64)   │          2,048 │ conv_dw_1_relu[0][0]   │
├───────────────────────────┼────────────────────────┼────────────────┼────────────────────────┤
│ conv_pw_1_bn              │ (None, 112, 112, 64)   │            256 │ conv_pw_1[0][0]        │
│ (BatchNormalization)      │                        │                │                        │
├───────────────────────────┼────────────────────────┼────────────────┼────────────────────────┤
│ conv_pw_1_relu (ReLU)     │ (None, 112, 112, 64)   │              0 │ conv_pw_1_bn[0][0]     │
├───────────────────────────┼────────────────────────┼────────────────┼────────────────────────┤
│ conv_pad_2                │ (None, 113, 113, 64)   │              0 │ conv_pw_1_relu[0][0]   │
│ (ZeroPadding2D)           │                        │                │                        │
├───────────────────────────┼────────────────────────┼────────────────┼────────────────────────┤
│ conv_dw_2                 │ (None, 56, 56, 64)     │            576 │ conv_pad_2[0][0]       │
│ (DepthwiseConv2D)         │                        │                │                        │
├───────────────────────────┼────────────────────────┼────────────────┼────────────────────────┤
│ conv_dw_2_bn              │ (None, 56, 56, 64)     │            256 │ conv_dw_2[0][0]        │
│ (BatchNormalization)      │                        │                │                        │
├───────────────────────────┼────────────────────────┼────────────────┼────────────────────────┤
│ conv_dw_2_relu (ReLU)     │ (None, 56, 56, 64)     │              0 │ conv_dw_2_bn[0][0]     │
├───────────────────────────┼────────────────────────┼────────────────┼────────────────────────┤
│ conv_pw_2 (Conv2D)        │ (None, 56, 56, 128)    │          8,192 │ conv_dw_2_relu[0][0]   │
├───────────────────────────┼────────────────────────┼────────────────┼────────────────────────┤
│ conv_pw_2_bn              │ (None, 56, 56, 128)    │            512 │ conv_pw_2[0][0]        │
│ (BatchNormalization)      │                        │                │                        │
├───────────────────────────┼────────────────────────┼────────────────┼────────────────────────┤
│ conv_pw_2_relu (ReLU)     │ (None, 56, 56, 128)    │              0 │ conv_pw_2_bn[0][0]     │
├───────────────────────────┼────────────────────────┼────────────────┼────────────────────────┤
│ conv_dw_3                 │ (None, 56, 56, 128)    │          1,152 │ conv_pw_2_relu[0][0]   │
│ (DepthwiseConv2D)         │                        │                │                        │
├───────────────────────────┼────────────────────────┼────────────────┼────────────────────────┤
│ conv_dw_3_bn              │ (None, 56, 56, 128)    │            512 │ conv_dw_3[0][0]        │
│ (BatchNormalization)      │                        │                │                        │
├───────────────────────────┼────────────────────────┼────────────────┼────────────────────────┤
│ conv_dw_3_relu (ReLU)     │ (None, 56, 56, 128)    │              0 │ conv_dw_3_bn[0][0]     │
├───────────────────────────┼────────────────────────┼────────────────┼────────────────────────┤
│ conv_pw_3 (Conv2D)        │ (None, 56, 56, 128)    │         16,384 │ conv_dw_3_relu[0][0]   │
├───────────────────────────┼────────────────────────┼────────────────┼────────────────────────┤
│ conv_pw_3_bn              │ (None, 56, 56, 128)    │            512 │ conv_pw_3[0][0]        │
│ (BatchNormalization)      │                        │                │                        │
├───────────────────────────┼────────────────────────┼────────────────┼────────────────────────┤
│ conv_pw_3_relu (ReLU)     │ (None, 56, 56, 128)    │              0 │ conv_pw_3_bn[0][0]     │
├───────────────────────────┼────────────────────────┼────────────────┼────────────────────────┤
│ conv_pad_4                │ (None, 57, 57, 128)    │              0 │ conv_pw_3_relu[0][0]   │
│ (ZeroPadding2D)           │                        │                │                        │
├───────────────────────────┼────────────────────────┼────────────────┼────────────────────────┤
│ conv_dw_4                 │ (None, 28, 28, 128)    │          1,152 │ conv_pad_4[0][0]       │
│ (DepthwiseConv2D)         │                        │                │                        │
├───────────────────────────┼────────────────────────┼────────────────┼────────────────────────┤
│ conv_dw_4_bn              │ (None, 28, 28, 128)    │            512 │ conv_dw_4[0][0]        │
│ (BatchNormalization)      │                        │                │                        │
├───────────────────────────┼────────────────────────┼────────────────┼────────────────────────┤
│ conv_dw_4_relu (ReLU)     │ (None, 28, 28, 128)    │              0 │ conv_dw_4_bn[0][0]     │
├───────────────────────────┼────────────────────────┼────────────────┼────────────────────────┤
│ conv_pw_4 (Conv2D)        │ (None, 28, 28, 256)    │         32,768 │ conv_dw_4_relu[0][0]   │
├───────────────────────────┼────────────────────────┼────────────────┼────────────────────────┤
│ conv_pw_4_bn              │ (None, 28, 28, 256)    │          1,024 │ conv_pw_4[0][0]        │
│ (BatchNormalization)      │                        │                │                        │
├───────────────────────────┼────────────────────────┼────────────────┼────────────────────────┤
│ conv_pw_4_relu (ReLU)     │ (None, 28, 28, 256)    │              0 │ conv_pw_4_bn[0][0]     │
├───────────────────────────┼────────────────────────┼────────────────┼────────────────────────┤
│ conv_dw_5                 │ (None, 28, 28, 256)    │          2,304 │ conv_pw_4_relu[0][0]   │
│ (DepthwiseConv2D)         │                        │                │                        │
├───────────────────────────┼────────────────────────┼────────────────┼────────────────────────┤
│ conv_dw_5_bn              │ (None, 28, 28, 256)    │          1,024 │ conv_dw_5[0][0]        │
│ (BatchNormalization)      │                        │                │                        │
├───────────────────────────┼────────────────────────┼────────────────┼────────────────────────┤
│ conv_dw_5_relu (ReLU)     │ (None, 28, 28, 256)    │              0 │ conv_dw_5_bn[0][0]     │
├───────────────────────────┼────────────────────────┼────────────────┼────────────────────────┤
│ conv_pw_5 (Conv2D)        │ (None, 28, 28, 256)    │         65,536 │ conv_dw_5_relu[0][0]   │
├───────────────────────────┼────────────────────────┼────────────────┼────────────────────────┤
│ conv_pw_5_bn              │ (None, 28, 28, 256)    │          1,024 │ conv_pw_5[0][0]        │
│ (BatchNormalization)      │                        │                │                        │
├───────────────────────────┼────────────────────────┼────────────────┼────────────────────────┤
│ conv_pw_5_relu (ReLU)     │ (None, 28, 28, 256)    │              0 │ conv_pw_5_bn[0][0]     │
├───────────────────────────┼────────────────────────┼────────────────┼────────────────────────┤
│ conv_pad_6                │ (None, 29, 29, 256)    │              0 │ conv_pw_5_relu[0][0]   │
│ (ZeroPadding2D)           │                        │                │                        │
├───────────────────────────┼────────────────────────┼────────────────┼────────────────────────┤
│ conv_dw_6                 │ (None, 14, 14, 256)    │          2,304 │ conv_pad_6[0][0]       │
│ (DepthwiseConv2D)         │                        │                │                        │
├───────────────────────────┼────────────────────────┼────────────────┼────────────────────────┤
│ conv_dw_6_bn              │ (None, 14, 14, 256)    │          1,024 │ conv_dw_6[0][0]        │
│ (BatchNormalization)      │                        │                │                        │
├───────────────────────────┼────────────────────────┼────────────────┼────────────────────────┤
│ conv_dw_6_relu (ReLU)     │ (None, 14, 14, 256)    │              0 │ conv_dw_6_bn[0][0]     │
├───────────────────────────┼────────────────────────┼────────────────┼────────────────────────┤
│ conv_pw_6 (Conv2D)        │ (None, 14, 14, 512)    │        131,072 │ conv_dw_6_relu[0][0]   │
├───────────────────────────┼────────────────────────┼────────────────┼────────────────────────┤
│ conv_pw_6_bn              │ (None, 14, 14, 512)    │          2,048 │ conv_pw_6[0][0]        │
│ (BatchNormalization)      │                        │                │                        │
├───────────────────────────┼────────────────────────┼────────────────┼────────────────────────┤
│ conv_pw_6_relu (ReLU)     │ (None, 14, 14, 512)    │              0 │ conv_pw_6_bn[0][0]     │
├───────────────────────────┼────────────────────────┼────────────────┼────────────────────────┤
│ conv_dw_7                 │ (None, 14, 14, 512)    │          4,608 │ conv_pw_6_relu[0][0]   │
│ (DepthwiseConv2D)         │                        │                │                        │
├───────────────────────────┼────────────────────────┼────────────────┼────────────────────────┤
│ conv_dw_7_bn              │ (None, 14, 14, 512)    │          2,048 │ conv_dw_7[0][0]        │
│ (BatchNormalization)      │                        │                │                        │
├───────────────────────────┼────────────────────────┼────────────────┼────────────────────────┤
│ conv_dw_7_relu (ReLU)     │ (None, 14, 14, 512)    │              0 │ conv_dw_7_bn[0][0]     │
├───────────────────────────┼────────────────────────┼────────────────┼────────────────────────┤
│ conv_pw_7 (Conv2D)        │ (None, 14, 14, 512)    │        262,144 │ conv_dw_7_relu[0][0]   │
├───────────────────────────┼────────────────────────┼────────────────┼────────────────────────┤
│ conv_pw_7_bn              │ (None, 14, 14, 512)    │          2,048 │ conv_pw_7[0][0]        │
│ (BatchNormalization)      │                        │                │                        │
├───────────────────────────┼────────────────────────┼────────────────┼────────────────────────┤
│ conv_pw_7_relu (ReLU)     │ (None, 14, 14, 512)    │              0 │ conv_pw_7_bn[0][0]     │
├───────────────────────────┼────────────────────────┼────────────────┼────────────────────────┤
│ conv_dw_8                 │ (None, 14, 14, 512)    │          4,608 │ conv_pw_7_relu[0][0]   │
│ (DepthwiseConv2D)         │                        │                │                        │
├───────────────────────────┼────────────────────────┼────────────────┼────────────────────────┤
│ conv_dw_8_bn              │ (None, 14, 14, 512)    │          2,048 │ conv_dw_8[0][0]        │
│ (BatchNormalization)      │                        │                │                        │
├───────────────────────────┼────────────────────────┼────────────────┼────────────────────────┤
│ conv_dw_8_relu (ReLU)     │ (None, 14, 14, 512)    │              0 │ conv_dw_8_bn[0][0]     │
├───────────────────────────┼────────────────────────┼────────────────┼────────────────────────┤
│ conv_pw_8 (Conv2D)        │ (None, 14, 14, 512)    │        262,144 │ conv_dw_8_relu[0][0]   │
├───────────────────────────┼────────────────────────┼────────────────┼────────────────────────┤
│ conv_pw_8_bn              │ (None, 14, 14, 512)    │          2,048 │ conv_pw_8[0][0]        │
│ (BatchNormalization)      │                        │                │                        │
├───────────────────────────┼────────────────────────┼────────────────┼────────────────────────┤
│ conv_pw_8_relu (ReLU)     │ (None, 14, 14, 512)    │              0 │ conv_pw_8_bn[0][0]     │
├───────────────────────────┼────────────────────────┼────────────────┼────────────────────────┤
│ conv_dw_9                 │ (None, 14, 14, 512)    │          4,608 │ conv_pw_8_relu[0][0]   │
│ (DepthwiseConv2D)         │                        │                │                        │
├───────────────────────────┼────────────────────────┼────────────────┼────────────────────────┤
│ conv_dw_9_bn              │ (None, 14, 14, 512)    │          2,048 │ conv_dw_9[0][0]        │
│ (BatchNormalization)      │                        │                │                        │
├───────────────────────────┼────────────────────────┼────────────────┼────────────────────────┤
│ conv_dw_9_relu (ReLU)     │ (None, 14, 14, 512)    │              0 │ conv_dw_9_bn[0][0]     │
├───────────────────────────┼────────────────────────┼────────────────┼────────────────────────┤
│ conv_pw_9 (Conv2D)        │ (None, 14, 14, 512)    │        262,144 │ conv_dw_9_relu[0][0]   │
├───────────────────────────┼────────────────────────┼────────────────┼────────────────────────┤
│ conv_pw_9_bn              │ (None, 14, 14, 512)    │          2,048 │ conv_pw_9[0][0]        │
│ (BatchNormalization)      │                        │                │                        │
├───────────────────────────┼────────────────────────┼────────────────┼────────────────────────┤
│ conv_pw_9_relu (ReLU)     │ (None, 14, 14, 512)    │              0 │ conv_pw_9_bn[0][0]     │
├───────────────────────────┼────────────────────────┼────────────────┼────────────────────────┤
│ conv_dw_10                │ (None, 14, 14, 512)    │          4,608 │ conv_pw_9_relu[0][0]   │
│ (DepthwiseConv2D)         │                        │                │                        │
├───────────────────────────┼────────────────────────┼────────────────┼────────────────────────┤
│ conv_dw_10_bn             │ (None, 14, 14, 512)    │          2,048 │ conv_dw_10[0][0]       │
│ (BatchNormalization)      │                        │                │                        │
├───────────────────────────┼────────────────────────┼────────────────┼────────────────────────┤
│ conv_dw_10_relu (ReLU)    │ (None, 14, 14, 512)    │              0 │ conv_dw_10_bn[0][0]    │
├───────────────────────────┼────────────────────────┼────────────────┼────────────────────────┤
│ conv_pw_10 (Conv2D)       │ (None, 14, 14, 512)    │        262,144 │ conv_dw_10_relu[0][0]  │
├───────────────────────────┼────────────────────────┼────────────────┼────────────────────────┤
│ conv_pw_10_bn             │ (None, 14, 14, 512)    │          2,048 │ conv_pw_10[0][0]       │
│ (BatchNormalization)      │                        │                │                        │
├───────────────────────────┼────────────────────────┼────────────────┼────────────────────────┤
│ conv_pw_10_relu (ReLU)    │ (None, 14, 14, 512)    │              0 │ conv_pw_10_bn[0][0]    │
├───────────────────────────┼────────────────────────┼────────────────┼────────────────────────┤
│ conv_dw_11                │ (None, 14, 14, 512)    │          4,608 │ conv_pw_10_relu[0][0]  │
│ (DepthwiseConv2D)         │                        │                │                        │
├───────────────────────────┼────────────────────────┼────────────────┼────────────────────────┤
│ conv_dw_11_bn             │ (None, 14, 14, 512)    │          2,048 │ conv_dw_11[0][0]       │
│ (BatchNormalization)      │                        │                │                        │
├───────────────────────────┼────────────────────────┼────────────────┼────────────────────────┤
│ conv_dw_11_relu (ReLU)    │ (None, 14, 14, 512)    │              0 │ conv_dw_11_bn[0][0]    │
├───────────────────────────┼────────────────────────┼────────────────┼────────────────────────┤
│ conv_pw_11 (Conv2D)       │ (None, 14, 14, 512)    │        262,144 │ conv_dw_11_relu[0][0]  │
├───────────────────────────┼────────────────────────┼────────────────┼────────────────────────┤
│ conv_pw_11_bn             │ (None, 14, 14, 512)    │          2,048 │ conv_pw_11[0][0]       │
│ (BatchNormalization)      │                        │                │                        │
├───────────────────────────┼────────────────────────┼────────────────┼────────────────────────┤
│ conv_pw_11_relu (ReLU)    │ (None, 14, 14, 512)    │              0 │ conv_pw_11_bn[0][0]    │
├───────────────────────────┼────────────────────────┼────────────────┼────────────────────────┤
│ conv_pad_12               │ (None, 15, 15, 512)    │              0 │ conv_pw_11_relu[0][0]  │
│ (ZeroPadding2D)           │                        │                │                        │
├───────────────────────────┼────────────────────────┼────────────────┼────────────────────────┤
│ conv_dw_12                │ (None, 7, 7, 512)      │          4,608 │ conv_pad_12[0][0]      │
│ (DepthwiseConv2D)         │                        │                │                        │
├───────────────────────────┼────────────────────────┼────────────────┼────────────────────────┤
│ conv_dw_12_bn             │ (None, 7, 7, 512)      │          2,048 │ conv_dw_12[0][0]       │
│ (BatchNormalization)      │                        │                │                        │
├───────────────────────────┼────────────────────────┼────────────────┼────────────────────────┤
│ conv_dw_12_relu (ReLU)    │ (None, 7, 7, 512)      │              0 │ conv_dw_12_bn[0][0]    │
├───────────────────────────┼────────────────────────┼────────────────┼────────────────────────┤
│ conv_pw_12 (Conv2D)       │ (None, 7, 7, 1024)     │        524,288 │ conv_dw_12_relu[0][0]  │
├───────────────────────────┼────────────────────────┼────────────────┼────────────────────────┤
│ conv_pw_12_bn             │ (None, 7, 7, 1024)     │          4,096 │ conv_pw_12[0][0]       │
│ (BatchNormalization)      │                        │                │                        │
├───────────────────────────┼────────────────────────┼────────────────┼────────────────────────┤
│ conv_pw_12_relu (ReLU)    │ (None, 7, 7, 1024)     │              0 │ conv_pw_12_bn[0][0]    │
├───────────────────────────┼────────────────────────┼────────────────┼────────────────────────┤
│ conv_dw_13                │ (None, 7, 7, 1024)     │          9,216 │ conv_pw_12_relu[0][0]  │
│ (DepthwiseConv2D)         │                        │                │                        │
├───────────────────────────┼────────────────────────┼────────────────┼────────────────────────┤
│ conv_dw_13_bn             │ (None, 7, 7, 1024)     │          4,096 │ conv_dw_13[0][0]       │
│ (BatchNormalization)      │                        │                │                        │
├───────────────────────────┼────────────────────────┼────────────────┼────────────────────────┤
│ conv_dw_13_relu (ReLU)    │ (None, 7, 7, 1024)     │              0 │ conv_dw_13_bn[0][0]    │
├───────────────────────────┼────────────────────────┼────────────────┼────────────────────────┤
│ conv_pw_13 (Conv2D)       │ (None, 7, 7, 1024)     │      1,048,576 │ conv_dw_13_relu[0][0]  │
├───────────────────────────┼────────────────────────┼────────────────┼────────────────────────┤
│ conv_pw_13_bn             │ (None, 7, 7, 1024)     │          4,096 │ conv_pw_13[0][0]       │
│ (BatchNormalization)      │                        │                │                        │
├───────────────────────────┼────────────────────────┼────────────────┼────────────────────────┤
│ conv_pw_13_relu (ReLU)    │ (None, 7, 7, 1024)     │              0 │ conv_pw_13_bn[0][0]    │
├───────────────────────────┼────────────────────────┼────────────────┼────────────────────────┤
│ up_sampling2d             │ (None, 14, 14, 1024)   │              0 │ conv_pw_13_relu[0][0]  │
│ (UpSampling2D)            │                        │                │                        │
├───────────────────────────┼────────────────────────┼────────────────┼────────────────────────┤
│ concatenate (Concatenate) │ (None, 14, 14, 1536)   │              0 │ up_sampling2d[0][0],   │
│                           │                        │                │ conv_pw_11_relu[0][0]  │
├───────────────────────────┼────────────────────────┼────────────────┼────────────────────────┤
│ up_sampling2d_1           │ (None, 28, 28, 1536)   │              0 │ concatenate[0][0]      │
│ (UpSampling2D)            │                        │                │                        │
├───────────────────────────┼────────────────────────┼────────────────┼────────────────────────┤
│ concatenate_1             │ (None, 28, 28, 1792)   │              0 │ up_sampling2d_1[0][0], │
│ (Concatenate)             │                        │                │ conv_pw_5_relu[0][0]   │
├───────────────────────────┼────────────────────────┼────────────────┼────────────────────────┤
│ up_sampling2d_2           │ (None, 56, 56, 1792)   │              0 │ concatenate_1[0][0]    │
│ (UpSampling2D)            │                        │                │                        │
├───────────────────────────┼────────────────────────┼────────────────┼────────────────────────┤
│ concatenate_2             │ (None, 56, 56, 1920)   │              0 │ up_sampling2d_2[0][0], │
│ (Concatenate)             │                        │                │ conv_pw_3_relu[0][0]   │
├───────────────────────────┼────────────────────────┼────────────────┼────────────────────────┤
│ up_sampling2d_3           │ (None, 112, 112, 1920) │              0 │ concatenate_2[0][0]    │
│ (UpSampling2D)            │                        │                │                        │
├───────────────────────────┼────────────────────────┼────────────────┼────────────────────────┤
│ concatenate_3             │ (None, 112, 112, 1984) │              0 │ up_sampling2d_3[0][0], │
│ (Concatenate)             │                        │                │ conv_pw_1_relu[0][0]   │
├───────────────────────────┼────────────────────────┼────────────────┼────────────────────────┤
│ up_sampling2d_4           │ (None, 224, 224, 1984) │              0 │ concatenate_3[0][0]    │
│ (UpSampling2D)            │                        │                │                        │
├───────────────────────────┼────────────────────────┼────────────────┼────────────────────────┤
│ conv2d (Conv2D)           │ (None, 224, 224, 1)    │          1,985 │ up_sampling2d_4[0][0]  │
├───────────────────────────┼────────────────────────┼────────────────┼────────────────────────┤
│ reshape (Reshape)         │ (None, 224, 224)       │              0 │ conv2d[0][0]           │
└───────────────────────────┴────────────────────────┴────────────────┴────────────────────────┘
 Total params: 3,230,849 (12.32 MB)
 Trainable params: 3,208,961 (12.24 MB)
 Non-trainable params: 21,888 (85.50 KB)
from tensorflow import reduce_sum
from tensorflow.keras.backend import epsilon

def dice_coefficient(y_true, y_pred):
    numerator = 2 * reduce_sum(y_true * y_pred)
…
